DataParallel(
  (module): SuperNets(
    (first_conv): Sequential(
      (0): Conv2d(3, 32, kernel_size=(3, 3), stride=(1, 1))
      (1): BatchNorm2d(32, eps=1e-05, momentum=0.1, affine=True, track_running_stats=True)
      (2): ReLU6()
    )
    (blocks): ModuleList(
      (0): MobileInvertedResidualBlock(
        (mobile_inverted_conv): MBInvertedConvLayer(
          (depth_conv): Sequential(
            (0): Conv2d(32, 32, kernel_size=(3, 3), stride=(1, 1), padding=(1, 1), groups=32, bias=False)
            (1): BatchNorm2d(32, eps=1e-05, momentum=0.1, affine=True, track_running_stats=True)
            (2): ReLU6(inplace=True)
          )
          (point_linear): Sequential(
            (0): Conv2d(32, 16, kernel_size=(1, 1), stride=(1, 1), bias=False)
            (1): BatchNorm2d(16, eps=1e-05, momentum=0.1, affine=True, track_running_stats=True)
          )
        )
      )
      (1): MobileInvertedResidualBlock(
        (mobile_inverted_conv): MixedEdge(
          (candidate_ops): ModuleList(
            (0): MBInvertedConvLayer(
              (inverted_bottleneck): Sequential(
                (0): Conv2d(16, 48, kernel_size=(1, 1), stride=(1, 1), bias=False)
                (1): BatchNorm2d(48, eps=1e-05, momentum=0.1, affine=True, track_running_stats=True)
                (2): ReLU6(inplace=True)
              )
              (depth_conv): Sequential(
                (0): Conv2d(48, 48, kernel_size=(3, 3), stride=(2, 2), padding=(1, 1), groups=48, bias=False)
                (1): BatchNorm2d(48, eps=1e-05, momentum=0.1, affine=True, track_running_stats=True)
                (2): ReLU6(inplace=True)
              )
              (point_linear): Sequential(
                (0): Conv2d(48, 32, kernel_size=(1, 1), stride=(1, 1), bias=False)
                (1): BatchNorm2d(32, eps=1e-05, momentum=0.1, affine=True, track_running_stats=True)
              )
            )
            (1): MBInvertedConvLayer(
              (inverted_bottleneck): Sequential(
                (0): Conv2d(16, 96, kernel_size=(1, 1), stride=(1, 1), bias=False)
                (1): BatchNorm2d(96, eps=1e-05, momentum=0.1, affine=True, track_running_stats=True)
                (2): ReLU6(inplace=True)
              )
              (depth_conv): Sequential(
                (0): Conv2d(96, 96, kernel_size=(3, 3), stride=(2, 2), padding=(1, 1), groups=96, bias=False)
                (1): BatchNorm2d(96, eps=1e-05, momentum=0.1, affine=True, track_running_stats=True)
                (2): ReLU6(inplace=True)
              )
              (point_linear): Sequential(
                (0): Conv2d(96, 32, kernel_size=(1, 1), stride=(1, 1), bias=False)
                (1): BatchNorm2d(32, eps=1e-05, momentum=0.1, affine=True, track_running_stats=True)
              )
            )
            (2): MBInvertedConvLayer(
              (inverted_bottleneck): Sequential(
                (0): Conv2d(16, 48, kernel_size=(1, 1), stride=(1, 1), bias=False)
                (1): BatchNorm2d(48, eps=1e-05, momentum=0.1, affine=True, track_running_stats=True)
                (2): ReLU6(inplace=True)
              )
              (depth_conv): Sequential(
                (0): Conv2d(48, 48, kernel_size=(5, 5), stride=(2, 2), padding=(2, 2), groups=48, bias=False)
                (1): BatchNorm2d(48, eps=1e-05, momentum=0.1, affine=True, track_running_stats=True)
                (2): ReLU6(inplace=True)
              )
              (point_linear): Sequential(
                (0): Conv2d(48, 32, kernel_size=(1, 1), stride=(1, 1), bias=False)
                (1): BatchNorm2d(32, eps=1e-05, momentum=0.1, affine=True, track_running_stats=True)
              )
            )
            (3): MBInvertedConvLayer(
              (inverted_bottleneck): Sequential(
                (0): Conv2d(16, 96, kernel_size=(1, 1), stride=(1, 1), bias=False)
                (1): BatchNorm2d(96, eps=1e-05, momentum=0.1, affine=True, track_running_stats=True)
                (2): ReLU6(inplace=True)
              )
              (depth_conv): Sequential(
                (0): Conv2d(96, 96, kernel_size=(5, 5), stride=(2, 2), padding=(2, 2), groups=96, bias=False)
                (1): BatchNorm2d(96, eps=1e-05, momentum=0.1, affine=True, track_running_stats=True)
                (2): ReLU6(inplace=True)
              )
              (point_linear): Sequential(
                (0): Conv2d(96, 32, kernel_size=(1, 1), stride=(1, 1), bias=False)
                (1): BatchNorm2d(32, eps=1e-05, momentum=0.1, affine=True, track_running_stats=True)
              )
            )
            (4): MBInvertedConvLayer(
              (inverted_bottleneck): Sequential(
                (0): Conv2d(16, 48, kernel_size=(1, 1), stride=(1, 1), bias=False)
                (1): BatchNorm2d(48, eps=1e-05, momentum=0.1, affine=True, track_running_stats=True)
                (2): ReLU6(inplace=True)
              )
              (depth_conv): Sequential(
                (0): Conv2d(48, 48, kernel_size=(7, 7), stride=(2, 2), padding=(3, 3), groups=48, bias=False)
                (1): BatchNorm2d(48, eps=1e-05, momentum=0.1, affine=True, track_running_stats=True)
                (2): ReLU6(inplace=True)
              )
              (point_linear): Sequential(
                (0): Conv2d(48, 32, kernel_size=(1, 1), stride=(1, 1), bias=False)
                (1): BatchNorm2d(32, eps=1e-05, momentum=0.1, affine=True, track_running_stats=True)
              )
            )
            (5): MBInvertedConvLayer(
              (inverted_bottleneck): Sequential(
                (0): Conv2d(16, 96, kernel_size=(1, 1), stride=(1, 1), bias=False)
                (1): BatchNorm2d(96, eps=1e-05, momentum=0.1, affine=True, track_running_stats=True)
                (2): ReLU6(inplace=True)
              )
              (depth_conv): Sequential(
                (0): Conv2d(96, 96, kernel_size=(7, 7), stride=(2, 2), padding=(3, 3), groups=96, bias=False)
                (1): BatchNorm2d(96, eps=1e-05, momentum=0.1, affine=True, track_running_stats=True)
                (2): ReLU6(inplace=True)
              )
              (point_linear): Sequential(
                (0): Conv2d(96, 32, kernel_size=(1, 1), stride=(1, 1), bias=False)
                (1): BatchNorm2d(32, eps=1e-05, momentum=0.1, affine=True, track_running_stats=True)
              )
            )
          )
        )
      )
      (2): MobileInvertedResidualBlock(
        (mobile_inverted_conv): MixedEdge(
          (candidate_ops): ModuleList(
            (0): MBInvertedConvLayer(
              (inverted_bottleneck): Sequential(
                (0): Conv2d(32, 96, kernel_size=(1, 1), stride=(1, 1), bias=False)
                (1): BatchNorm2d(96, eps=1e-05, momentum=0.1, affine=True, track_running_stats=True)
                (2): ReLU6(inplace=True)
              )
              (depth_conv): Sequential(
                (0): Conv2d(96, 96, kernel_size=(3, 3), stride=(1, 1), padding=(1, 1), groups=96, bias=False)
                (1): BatchNorm2d(96, eps=1e-05, momentum=0.1, affine=True, track_running_stats=True)
                (2): ReLU6(inplace=True)
              )
              (point_linear): Sequential(
                (0): Conv2d(96, 32, kernel_size=(1, 1), stride=(1, 1), bias=False)
                (1): BatchNorm2d(32, eps=1e-05, momentum=0.1, affine=True, track_running_stats=True)
              )
            )
            (1): MBInvertedConvLayer(
              (inverted_bottleneck): Sequential(
                (0): Conv2d(32, 192, kernel_size=(1, 1), stride=(1, 1), bias=False)
                (1): BatchNorm2d(192, eps=1e-05, momentum=0.1, affine=True, track_running_stats=True)
                (2): ReLU6(inplace=True)
              )
              (depth_conv): Sequential(
                (0): Conv2d(192, 192, kernel_size=(3, 3), stride=(1, 1), padding=(1, 1), groups=192, bias=False)
                (1): BatchNorm2d(192, eps=1e-05, momentum=0.1, affine=True, track_running_stats=True)
                (2): ReLU6(inplace=True)
              )
              (point_linear): Sequential(
                (0): Conv2d(192, 32, kernel_size=(1, 1), stride=(1, 1), bias=False)
                (1): BatchNorm2d(32, eps=1e-05, momentum=0.1, affine=True, track_running_stats=True)
              )
            )
            (2): MBInvertedConvLayer(
              (inverted_bottleneck): Sequential(
                (0): Conv2d(32, 96, kernel_size=(1, 1), stride=(1, 1), bias=False)
                (1): BatchNorm2d(96, eps=1e-05, momentum=0.1, affine=True, track_running_stats=True)
                (2): ReLU6(inplace=True)
              )
              (depth_conv): Sequential(
                (0): Conv2d(96, 96, kernel_size=(5, 5), stride=(1, 1), padding=(2, 2), groups=96, bias=False)
                (1): BatchNorm2d(96, eps=1e-05, momentum=0.1, affine=True, track_running_stats=True)
                (2): ReLU6(inplace=True)
              )
              (point_linear): Sequential(
                (0): Conv2d(96, 32, kernel_size=(1, 1), stride=(1, 1), bias=False)
                (1): BatchNorm2d(32, eps=1e-05, momentum=0.1, affine=True, track_running_stats=True)
              )
            )
            (3): MBInvertedConvLayer(
              (inverted_bottleneck): Sequential(
                (0): Conv2d(32, 192, kernel_size=(1, 1), stride=(1, 1), bias=False)
                (1): BatchNorm2d(192, eps=1e-05, momentum=0.1, affine=True, track_running_stats=True)
                (2): ReLU6(inplace=True)
              )
              (depth_conv): Sequential(
                (0): Conv2d(192, 192, kernel_size=(5, 5), stride=(1, 1), padding=(2, 2), groups=192, bias=False)
                (1): BatchNorm2d(192, eps=1e-05, momentum=0.1, affine=True, track_running_stats=True)
                (2): ReLU6(inplace=True)
              )
              (point_linear): Sequential(
                (0): Conv2d(192, 32, kernel_size=(1, 1), stride=(1, 1), bias=False)
                (1): BatchNorm2d(32, eps=1e-05, momentum=0.1, affine=True, track_running_stats=True)
              )
            )
            (4): MBInvertedConvLayer(
              (inverted_bottleneck): Sequential(
                (0): Conv2d(32, 96, kernel_size=(1, 1), stride=(1, 1), bias=False)
                (1): BatchNorm2d(96, eps=1e-05, momentum=0.1, affine=True, track_running_stats=True)
                (2): ReLU6(inplace=True)
              )
              (depth_conv): Sequential(
                (0): Conv2d(96, 96, kernel_size=(7, 7), stride=(1, 1), padding=(3, 3), groups=96, bias=False)
                (1): BatchNorm2d(96, eps=1e-05, momentum=0.1, affine=True, track_running_stats=True)
                (2): ReLU6(inplace=True)
              )
              (point_linear): Sequential(
                (0): Conv2d(96, 32, kernel_size=(1, 1), stride=(1, 1), bias=False)
                (1): BatchNorm2d(32, eps=1e-05, momentum=0.1, affine=True, track_running_stats=True)
              )
            )
            (5): MBInvertedConvLayer(
              (inverted_bottleneck): Sequential(
                (0): Conv2d(32, 192, kernel_size=(1, 1), stride=(1, 1), bias=False)
                (1): BatchNorm2d(192, eps=1e-05, momentum=0.1, affine=True, track_running_stats=True)
                (2): ReLU6(inplace=True)
              )
              (depth_conv): Sequential(
                (0): Conv2d(192, 192, kernel_size=(7, 7), stride=(1, 1), padding=(3, 3), groups=192, bias=False)
                (1): BatchNorm2d(192, eps=1e-05, momentum=0.1, affine=True, track_running_stats=True)
                (2): ReLU6(inplace=True)
              )
              (point_linear): Sequential(
                (0): Conv2d(192, 32, kernel_size=(1, 1), stride=(1, 1), bias=False)
                (1): BatchNorm2d(32, eps=1e-05, momentum=0.1, affine=True, track_running_stats=True)
              )
            )
            (6): Zero()
          )
        )
      )
      (3): MobileInvertedResidualBlock(
        (mobile_inverted_conv): MixedEdge(
          (candidate_ops): ModuleList(
            (0): MBInvertedConvLayer(
              (inverted_bottleneck): Sequential(
                (0): Conv2d(32, 96, kernel_size=(1, 1), stride=(1, 1), bias=False)
                (1): BatchNorm2d(96, eps=1e-05, momentum=0.1, affine=True, track_running_stats=True)
                (2): ReLU6(inplace=True)
              )
              (depth_conv): Sequential(
                (0): Conv2d(96, 96, kernel_size=(3, 3), stride=(1, 1), padding=(1, 1), groups=96, bias=False)
                (1): BatchNorm2d(96, eps=1e-05, momentum=0.1, affine=True, track_running_stats=True)
                (2): ReLU6(inplace=True)
              )
              (point_linear): Sequential(
                (0): Conv2d(96, 32, kernel_size=(1, 1), stride=(1, 1), bias=False)
                (1): BatchNorm2d(32, eps=1e-05, momentum=0.1, affine=True, track_running_stats=True)
              )
            )
            (1): MBInvertedConvLayer(
              (inverted_bottleneck): Sequential(
                (0): Conv2d(32, 192, kernel_size=(1, 1), stride=(1, 1), bias=False)
                (1): BatchNorm2d(192, eps=1e-05, momentum=0.1, affine=True, track_running_stats=True)
                (2): ReLU6(inplace=True)
              )
              (depth_conv): Sequential(
                (0): Conv2d(192, 192, kernel_size=(3, 3), stride=(1, 1), padding=(1, 1), groups=192, bias=False)
                (1): BatchNorm2d(192, eps=1e-05, momentum=0.1, affine=True, track_running_stats=True)
                (2): ReLU6(inplace=True)
              )
              (point_linear): Sequential(
                (0): Conv2d(192, 32, kernel_size=(1, 1), stride=(1, 1), bias=False)
                (1): BatchNorm2d(32, eps=1e-05, momentum=0.1, affine=True, track_running_stats=True)
              )
            )
            (2): MBInvertedConvLayer(
              (inverted_bottleneck): Sequential(
                (0): Conv2d(32, 96, kernel_size=(1, 1), stride=(1, 1), bias=False)
                (1): BatchNorm2d(96, eps=1e-05, momentum=0.1, affine=True, track_running_stats=True)
                (2): ReLU6(inplace=True)
              )
              (depth_conv): Sequential(
                (0): Conv2d(96, 96, kernel_size=(5, 5), stride=(1, 1), padding=(2, 2), groups=96, bias=False)
                (1): BatchNorm2d(96, eps=1e-05, momentum=0.1, affine=True, track_running_stats=True)
                (2): ReLU6(inplace=True)
              )
              (point_linear): Sequential(
                (0): Conv2d(96, 32, kernel_size=(1, 1), stride=(1, 1), bias=False)
                (1): BatchNorm2d(32, eps=1e-05, momentum=0.1, affine=True, track_running_stats=True)
              )
            )
            (3): MBInvertedConvLayer(
              (inverted_bottleneck): Sequential(
                (0): Conv2d(32, 192, kernel_size=(1, 1), stride=(1, 1), bias=False)
                (1): BatchNorm2d(192, eps=1e-05, momentum=0.1, affine=True, track_running_stats=True)
                (2): ReLU6(inplace=True)
              )
              (depth_conv): Sequential(
                (0): Conv2d(192, 192, kernel_size=(5, 5), stride=(1, 1), padding=(2, 2), groups=192, bias=False)
                (1): BatchNorm2d(192, eps=1e-05, momentum=0.1, affine=True, track_running_stats=True)
                (2): ReLU6(inplace=True)
              )
              (point_linear): Sequential(
                (0): Conv2d(192, 32, kernel_size=(1, 1), stride=(1, 1), bias=False)
                (1): BatchNorm2d(32, eps=1e-05, momentum=0.1, affine=True, track_running_stats=True)
              )
            )
            (4): MBInvertedConvLayer(
              (inverted_bottleneck): Sequential(
                (0): Conv2d(32, 96, kernel_size=(1, 1), stride=(1, 1), bias=False)
                (1): BatchNorm2d(96, eps=1e-05, momentum=0.1, affine=True, track_running_stats=True)
                (2): ReLU6(inplace=True)
              )
              (depth_conv): Sequential(
                (0): Conv2d(96, 96, kernel_size=(7, 7), stride=(1, 1), padding=(3, 3), groups=96, bias=False)
                (1): BatchNorm2d(96, eps=1e-05, momentum=0.1, affine=True, track_running_stats=True)
                (2): ReLU6(inplace=True)
              )
              (point_linear): Sequential(
                (0): Conv2d(96, 32, kernel_size=(1, 1), stride=(1, 1), bias=False)
                (1): BatchNorm2d(32, eps=1e-05, momentum=0.1, affine=True, track_running_stats=True)
              )
            )
            (5): MBInvertedConvLayer(
              (inverted_bottleneck): Sequential(
                (0): Conv2d(32, 192, kernel_size=(1, 1), stride=(1, 1), bias=False)
                (1): BatchNorm2d(192, eps=1e-05, momentum=0.1, affine=True, track_running_stats=True)
                (2): ReLU6(inplace=True)
              )
              (depth_conv): Sequential(
                (0): Conv2d(192, 192, kernel_size=(7, 7), stride=(1, 1), padding=(3, 3), groups=192, bias=False)
                (1): BatchNorm2d(192, eps=1e-05, momentum=0.1, affine=True, track_running_stats=True)
                (2): ReLU6(inplace=True)
              )
              (point_linear): Sequential(
                (0): Conv2d(192, 32, kernel_size=(1, 1), stride=(1, 1), bias=False)
                (1): BatchNorm2d(32, eps=1e-05, momentum=0.1, affine=True, track_running_stats=True)
              )
            )
            (6): Zero()
          )
        )
      )
      (4): MobileInvertedResidualBlock(
        (mobile_inverted_conv): MixedEdge(
          (candidate_ops): ModuleList(
            (0): MBInvertedConvLayer(
              (inverted_bottleneck): Sequential(
                (0): Conv2d(32, 96, kernel_size=(1, 1), stride=(1, 1), bias=False)
                (1): BatchNorm2d(96, eps=1e-05, momentum=0.1, affine=True, track_running_stats=True)
                (2): ReLU6(inplace=True)
              )
              (depth_conv): Sequential(
                (0): Conv2d(96, 96, kernel_size=(3, 3), stride=(2, 2), padding=(1, 1), groups=96, bias=False)
                (1): BatchNorm2d(96, eps=1e-05, momentum=0.1, affine=True, track_running_stats=True)
                (2): ReLU6(inplace=True)
              )
              (point_linear): Sequential(
                (0): Conv2d(96, 64, kernel_size=(1, 1), stride=(1, 1), bias=False)
                (1): BatchNorm2d(64, eps=1e-05, momentum=0.1, affine=True, track_running_stats=True)
              )
            )
            (1): MBInvertedConvLayer(
              (inverted_bottleneck): Sequential(
                (0): Conv2d(32, 192, kernel_size=(1, 1), stride=(1, 1), bias=False)
                (1): BatchNorm2d(192, eps=1e-05, momentum=0.1, affine=True, track_running_stats=True)
                (2): ReLU6(inplace=True)
              )
              (depth_conv): Sequential(
                (0): Conv2d(192, 192, kernel_size=(3, 3), stride=(2, 2), padding=(1, 1), groups=192, bias=False)
                (1): BatchNorm2d(192, eps=1e-05, momentum=0.1, affine=True, track_running_stats=True)
                (2): ReLU6(inplace=True)
              )
              (point_linear): Sequential(
                (0): Conv2d(192, 64, kernel_size=(1, 1), stride=(1, 1), bias=False)
                (1): BatchNorm2d(64, eps=1e-05, momentum=0.1, affine=True, track_running_stats=True)
              )
            )
            (2): MBInvertedConvLayer(
              (inverted_bottleneck): Sequential(
                (0): Conv2d(32, 96, kernel_size=(1, 1), stride=(1, 1), bias=False)
                (1): BatchNorm2d(96, eps=1e-05, momentum=0.1, affine=True, track_running_stats=True)
                (2): ReLU6(inplace=True)
              )
              (depth_conv): Sequential(
                (0): Conv2d(96, 96, kernel_size=(5, 5), stride=(2, 2), padding=(2, 2), groups=96, bias=False)
                (1): BatchNorm2d(96, eps=1e-05, momentum=0.1, affine=True, track_running_stats=True)
                (2): ReLU6(inplace=True)
              )
              (point_linear): Sequential(
                (0): Conv2d(96, 64, kernel_size=(1, 1), stride=(1, 1), bias=False)
                (1): BatchNorm2d(64, eps=1e-05, momentum=0.1, affine=True, track_running_stats=True)
              )
            )
            (3): MBInvertedConvLayer(
              (inverted_bottleneck): Sequential(
                (0): Conv2d(32, 192, kernel_size=(1, 1), stride=(1, 1), bias=False)
                (1): BatchNorm2d(192, eps=1e-05, momentum=0.1, affine=True, track_running_stats=True)
                (2): ReLU6(inplace=True)
              )
              (depth_conv): Sequential(
                (0): Conv2d(192, 192, kernel_size=(5, 5), stride=(2, 2), padding=(2, 2), groups=192, bias=False)
                (1): BatchNorm2d(192, eps=1e-05, momentum=0.1, affine=True, track_running_stats=True)
                (2): ReLU6(inplace=True)
              )
              (point_linear): Sequential(
                (0): Conv2d(192, 64, kernel_size=(1, 1), stride=(1, 1), bias=False)
                (1): BatchNorm2d(64, eps=1e-05, momentum=0.1, affine=True, track_running_stats=True)
              )
            )
            (4): MBInvertedConvLayer(
              (inverted_bottleneck): Sequential(
                (0): Conv2d(32, 96, kernel_size=(1, 1), stride=(1, 1), bias=False)
                (1): BatchNorm2d(96, eps=1e-05, momentum=0.1, affine=True, track_running_stats=True)
                (2): ReLU6(inplace=True)
              )
              (depth_conv): Sequential(
                (0): Conv2d(96, 96, kernel_size=(7, 7), stride=(2, 2), padding=(3, 3), groups=96, bias=False)
                (1): BatchNorm2d(96, eps=1e-05, momentum=0.1, affine=True, track_running_stats=True)
                (2): ReLU6(inplace=True)
              )
              (point_linear): Sequential(
                (0): Conv2d(96, 64, kernel_size=(1, 1), stride=(1, 1), bias=False)
                (1): BatchNorm2d(64, eps=1e-05, momentum=0.1, affine=True, track_running_stats=True)
              )
            )
            (5): MBInvertedConvLayer(
              (inverted_bottleneck): Sequential(
                (0): Conv2d(32, 192, kernel_size=(1, 1), stride=(1, 1), bias=False)
                (1): BatchNorm2d(192, eps=1e-05, momentum=0.1, affine=True, track_running_stats=True)
                (2): ReLU6(inplace=True)
              )
              (depth_conv): Sequential(
                (0): Conv2d(192, 192, kernel_size=(7, 7), stride=(2, 2), padding=(3, 3), groups=192, bias=False)
                (1): BatchNorm2d(192, eps=1e-05, momentum=0.1, affine=True, track_running_stats=True)
                (2): ReLU6(inplace=True)
              )
              (point_linear): Sequential(
                (0): Conv2d(192, 64, kernel_size=(1, 1), stride=(1, 1), bias=False)
                (1): BatchNorm2d(64, eps=1e-05, momentum=0.1, affine=True, track_running_stats=True)
              )
            )
          )
        )
      )
      (5): MobileInvertedResidualBlock(
        (mobile_inverted_conv): MixedEdge(
          (candidate_ops): ModuleList(
            (0): MBInvertedConvLayer(
              (inverted_bottleneck): Sequential(
                (0): Conv2d(64, 192, kernel_size=(1, 1), stride=(1, 1), bias=False)
                (1): BatchNorm2d(192, eps=1e-05, momentum=0.1, affine=True, track_running_stats=True)
                (2): ReLU6(inplace=True)
              )
              (depth_conv): Sequential(
                (0): Conv2d(192, 192, kernel_size=(3, 3), stride=(1, 1), padding=(1, 1), groups=192, bias=False)
                (1): BatchNorm2d(192, eps=1e-05, momentum=0.1, affine=True, track_running_stats=True)
                (2): ReLU6(inplace=True)
              )
              (point_linear): Sequential(
                (0): Conv2d(192, 64, kernel_size=(1, 1), stride=(1, 1), bias=False)
                (1): BatchNorm2d(64, eps=1e-05, momentum=0.1, affine=True, track_running_stats=True)
              )
            )
            (1): MBInvertedConvLayer(
              (inverted_bottleneck): Sequential(
                (0): Conv2d(64, 384, kernel_size=(1, 1), stride=(1, 1), bias=False)
                (1): BatchNorm2d(384, eps=1e-05, momentum=0.1, affine=True, track_running_stats=True)
                (2): ReLU6(inplace=True)
              )
              (depth_conv): Sequential(
                (0): Conv2d(384, 384, kernel_size=(3, 3), stride=(1, 1), padding=(1, 1), groups=384, bias=False)
                (1): BatchNorm2d(384, eps=1e-05, momentum=0.1, affine=True, track_running_stats=True)
                (2): ReLU6(inplace=True)
              )
              (point_linear): Sequential(
                (0): Conv2d(384, 64, kernel_size=(1, 1), stride=(1, 1), bias=False)
                (1): BatchNorm2d(64, eps=1e-05, momentum=0.1, affine=True, track_running_stats=True)
              )
            )
            (2): MBInvertedConvLayer(
              (inverted_bottleneck): Sequential(
                (0): Conv2d(64, 192, kernel_size=(1, 1), stride=(1, 1), bias=False)
                (1): BatchNorm2d(192, eps=1e-05, momentum=0.1, affine=True, track_running_stats=True)
                (2): ReLU6(inplace=True)
              )
              (depth_conv): Sequential(
                (0): Conv2d(192, 192, kernel_size=(5, 5), stride=(1, 1), padding=(2, 2), groups=192, bias=False)
                (1): BatchNorm2d(192, eps=1e-05, momentum=0.1, affine=True, track_running_stats=True)
                (2): ReLU6(inplace=True)
              )
              (point_linear): Sequential(
                (0): Conv2d(192, 64, kernel_size=(1, 1), stride=(1, 1), bias=False)
                (1): BatchNorm2d(64, eps=1e-05, momentum=0.1, affine=True, track_running_stats=True)
              )
            )
            (3): MBInvertedConvLayer(
              (inverted_bottleneck): Sequential(
                (0): Conv2d(64, 384, kernel_size=(1, 1), stride=(1, 1), bias=False)
                (1): BatchNorm2d(384, eps=1e-05, momentum=0.1, affine=True, track_running_stats=True)
                (2): ReLU6(inplace=True)
              )
              (depth_conv): Sequential(
                (0): Conv2d(384, 384, kernel_size=(5, 5), stride=(1, 1), padding=(2, 2), groups=384, bias=False)
                (1): BatchNorm2d(384, eps=1e-05, momentum=0.1, affine=True, track_running_stats=True)
                (2): ReLU6(inplace=True)
              )
              (point_linear): Sequential(
                (0): Conv2d(384, 64, kernel_size=(1, 1), stride=(1, 1), bias=False)
                (1): BatchNorm2d(64, eps=1e-05, momentum=0.1, affine=True, track_running_stats=True)
              )
            )
            (4): MBInvertedConvLayer(
              (inverted_bottleneck): Sequential(
                (0): Conv2d(64, 192, kernel_size=(1, 1), stride=(1, 1), bias=False)
                (1): BatchNorm2d(192, eps=1e-05, momentum=0.1, affine=True, track_running_stats=True)
                (2): ReLU6(inplace=True)
              )
              (depth_conv): Sequential(
                (0): Conv2d(192, 192, kernel_size=(7, 7), stride=(1, 1), padding=(3, 3), groups=192, bias=False)
                (1): BatchNorm2d(192, eps=1e-05, momentum=0.1, affine=True, track_running_stats=True)
                (2): ReLU6(inplace=True)
              )
              (point_linear): Sequential(
                (0): Conv2d(192, 64, kernel_size=(1, 1), stride=(1, 1), bias=False)
                (1): BatchNorm2d(64, eps=1e-05, momentum=0.1, affine=True, track_running_stats=True)
              )
            )
            (5): MBInvertedConvLayer(
              (inverted_bottleneck): Sequential(
                (0): Conv2d(64, 384, kernel_size=(1, 1), stride=(1, 1), bias=False)
                (1): BatchNorm2d(384, eps=1e-05, momentum=0.1, affine=True, track_running_stats=True)
                (2): ReLU6(inplace=True)
              )
              (depth_conv): Sequential(
                (0): Conv2d(384, 384, kernel_size=(7, 7), stride=(1, 1), padding=(3, 3), groups=384, bias=False)
                (1): BatchNorm2d(384, eps=1e-05, momentum=0.1, affine=True, track_running_stats=True)
                (2): ReLU6(inplace=True)
              )
              (point_linear): Sequential(
                (0): Conv2d(384, 64, kernel_size=(1, 1), stride=(1, 1), bias=False)
                (1): BatchNorm2d(64, eps=1e-05, momentum=0.1, affine=True, track_running_stats=True)
              )
            )
            (6): Zero()
          )
        )
      )
      (6): MobileInvertedResidualBlock(
        (mobile_inverted_conv): MixedEdge(
          (candidate_ops): ModuleList(
            (0): MBInvertedConvLayer(
              (inverted_bottleneck): Sequential(
                (0): Conv2d(64, 192, kernel_size=(1, 1), stride=(1, 1), bias=False)
                (1): BatchNorm2d(192, eps=1e-05, momentum=0.1, affine=True, track_running_stats=True)
                (2): ReLU6(inplace=True)
              )
              (depth_conv): Sequential(
                (0): Conv2d(192, 192, kernel_size=(3, 3), stride=(1, 1), padding=(1, 1), groups=192, bias=False)
                (1): BatchNorm2d(192, eps=1e-05, momentum=0.1, affine=True, track_running_stats=True)
                (2): ReLU6(inplace=True)
              )
              (point_linear): Sequential(
                (0): Conv2d(192, 64, kernel_size=(1, 1), stride=(1, 1), bias=False)
                (1): BatchNorm2d(64, eps=1e-05, momentum=0.1, affine=True, track_running_stats=True)
              )
            )
            (1): MBInvertedConvLayer(
              (inverted_bottleneck): Sequential(
                (0): Conv2d(64, 384, kernel_size=(1, 1), stride=(1, 1), bias=False)
                (1): BatchNorm2d(384, eps=1e-05, momentum=0.1, affine=True, track_running_stats=True)
                (2): ReLU6(inplace=True)
              )
              (depth_conv): Sequential(
                (0): Conv2d(384, 384, kernel_size=(3, 3), stride=(1, 1), padding=(1, 1), groups=384, bias=False)
                (1): BatchNorm2d(384, eps=1e-05, momentum=0.1, affine=True, track_running_stats=True)
                (2): ReLU6(inplace=True)
              )
              (point_linear): Sequential(
                (0): Conv2d(384, 64, kernel_size=(1, 1), stride=(1, 1), bias=False)
                (1): BatchNorm2d(64, eps=1e-05, momentum=0.1, affine=True, track_running_stats=True)
              )
            )
            (2): MBInvertedConvLayer(
              (inverted_bottleneck): Sequential(
                (0): Conv2d(64, 192, kernel_size=(1, 1), stride=(1, 1), bias=False)
                (1): BatchNorm2d(192, eps=1e-05, momentum=0.1, affine=True, track_running_stats=True)
                (2): ReLU6(inplace=True)
              )
              (depth_conv): Sequential(
                (0): Conv2d(192, 192, kernel_size=(5, 5), stride=(1, 1), padding=(2, 2), groups=192, bias=False)
                (1): BatchNorm2d(192, eps=1e-05, momentum=0.1, affine=True, track_running_stats=True)
                (2): ReLU6(inplace=True)
              )
              (point_linear): Sequential(
                (0): Conv2d(192, 64, kernel_size=(1, 1), stride=(1, 1), bias=False)
                (1): BatchNorm2d(64, eps=1e-05, momentum=0.1, affine=True, track_running_stats=True)
              )
            )
            (3): MBInvertedConvLayer(
              (inverted_bottleneck): Sequential(
                (0): Conv2d(64, 384, kernel_size=(1, 1), stride=(1, 1), bias=False)
                (1): BatchNorm2d(384, eps=1e-05, momentum=0.1, affine=True, track_running_stats=True)
                (2): ReLU6(inplace=True)
              )
              (depth_conv): Sequential(
                (0): Conv2d(384, 384, kernel_size=(5, 5), stride=(1, 1), padding=(2, 2), groups=384, bias=False)
                (1): BatchNorm2d(384, eps=1e-05, momentum=0.1, affine=True, track_running_stats=True)
                (2): ReLU6(inplace=True)
              )
              (point_linear): Sequential(
                (0): Conv2d(384, 64, kernel_size=(1, 1), stride=(1, 1), bias=False)
                (1): BatchNorm2d(64, eps=1e-05, momentum=0.1, affine=True, track_running_stats=True)
              )
            )
            (4): MBInvertedConvLayer(
              (inverted_bottleneck): Sequential(
                (0): Conv2d(64, 192, kernel_size=(1, 1), stride=(1, 1), bias=False)
                (1): BatchNorm2d(192, eps=1e-05, momentum=0.1, affine=True, track_running_stats=True)
                (2): ReLU6(inplace=True)
              )
              (depth_conv): Sequential(
                (0): Conv2d(192, 192, kernel_size=(7, 7), stride=(1, 1), padding=(3, 3), groups=192, bias=False)
                (1): BatchNorm2d(192, eps=1e-05, momentum=0.1, affine=True, track_running_stats=True)
                (2): ReLU6(inplace=True)
              )
              (point_linear): Sequential(
                (0): Conv2d(192, 64, kernel_size=(1, 1), stride=(1, 1), bias=False)
                (1): BatchNorm2d(64, eps=1e-05, momentum=0.1, affine=True, track_running_stats=True)
              )
            )
            (5): MBInvertedConvLayer(
              (inverted_bottleneck): Sequential(
                (0): Conv2d(64, 384, kernel_size=(1, 1), stride=(1, 1), bias=False)
                (1): BatchNorm2d(384, eps=1e-05, momentum=0.1, affine=True, track_running_stats=True)
                (2): ReLU6(inplace=True)
              )
              (depth_conv): Sequential(
                (0): Conv2d(384, 384, kernel_size=(7, 7), stride=(1, 1), padding=(3, 3), groups=384, bias=False)
                (1): BatchNorm2d(384, eps=1e-05, momentum=0.1, affine=True, track_running_stats=True)
                (2): ReLU6(inplace=True)
              )
              (point_linear): Sequential(
                (0): Conv2d(384, 64, kernel_size=(1, 1), stride=(1, 1), bias=False)
                (1): BatchNorm2d(64, eps=1e-05, momentum=0.1, affine=True, track_running_stats=True)
              )
            )
            (6): Zero()
          )
        )
      )
      (7): MobileInvertedResidualBlock(
        (mobile_inverted_conv): MixedEdge(
          (candidate_ops): ModuleList(
            (0): MBInvertedConvLayer(
              (inverted_bottleneck): Sequential(
                (0): Conv2d(64, 192, kernel_size=(1, 1), stride=(1, 1), bias=False)
                (1): BatchNorm2d(192, eps=1e-05, momentum=0.1, affine=True, track_running_stats=True)
                (2): ReLU6(inplace=True)
              )
              (depth_conv): Sequential(
                (0): Conv2d(192, 192, kernel_size=(3, 3), stride=(2, 2), padding=(1, 1), groups=192, bias=False)
                (1): BatchNorm2d(192, eps=1e-05, momentum=0.1, affine=True, track_running_stats=True)
                (2): ReLU6(inplace=True)
              )
              (point_linear): Sequential(
                (0): Conv2d(192, 128, kernel_size=(1, 1), stride=(1, 1), bias=False)
                (1): BatchNorm2d(128, eps=1e-05, momentum=0.1, affine=True, track_running_stats=True)
              )
            )
            (1): MBInvertedConvLayer(
              (inverted_bottleneck): Sequential(
                (0): Conv2d(64, 384, kernel_size=(1, 1), stride=(1, 1), bias=False)
                (1): BatchNorm2d(384, eps=1e-05, momentum=0.1, affine=True, track_running_stats=True)
                (2): ReLU6(inplace=True)
              )
              (depth_conv): Sequential(
                (0): Conv2d(384, 384, kernel_size=(3, 3), stride=(2, 2), padding=(1, 1), groups=384, bias=False)
                (1): BatchNorm2d(384, eps=1e-05, momentum=0.1, affine=True, track_running_stats=True)
                (2): ReLU6(inplace=True)
              )
              (point_linear): Sequential(
                (0): Conv2d(384, 128, kernel_size=(1, 1), stride=(1, 1), bias=False)
                (1): BatchNorm2d(128, eps=1e-05, momentum=0.1, affine=True, track_running_stats=True)
              )
            )
            (2): MBInvertedConvLayer(
              (inverted_bottleneck): Sequential(
                (0): Conv2d(64, 192, kernel_size=(1, 1), stride=(1, 1), bias=False)
                (1): BatchNorm2d(192, eps=1e-05, momentum=0.1, affine=True, track_running_stats=True)
                (2): ReLU6(inplace=True)
              )
              (depth_conv): Sequential(
                (0): Conv2d(192, 192, kernel_size=(5, 5), stride=(2, 2), padding=(2, 2), groups=192, bias=False)
                (1): BatchNorm2d(192, eps=1e-05, momentum=0.1, affine=True, track_running_stats=True)
                (2): ReLU6(inplace=True)
              )
              (point_linear): Sequential(
                (0): Conv2d(192, 128, kernel_size=(1, 1), stride=(1, 1), bias=False)
                (1): BatchNorm2d(128, eps=1e-05, momentum=0.1, affine=True, track_running_stats=True)
              )
            )
            (3): MBInvertedConvLayer(
              (inverted_bottleneck): Sequential(
                (0): Conv2d(64, 384, kernel_size=(1, 1), stride=(1, 1), bias=False)
                (1): BatchNorm2d(384, eps=1e-05, momentum=0.1, affine=True, track_running_stats=True)
                (2): ReLU6(inplace=True)
              )
              (depth_conv): Sequential(
                (0): Conv2d(384, 384, kernel_size=(5, 5), stride=(2, 2), padding=(2, 2), groups=384, bias=False)
                (1): BatchNorm2d(384, eps=1e-05, momentum=0.1, affine=True, track_running_stats=True)
                (2): ReLU6(inplace=True)
              )
              (point_linear): Sequential(
                (0): Conv2d(384, 128, kernel_size=(1, 1), stride=(1, 1), bias=False)
                (1): BatchNorm2d(128, eps=1e-05, momentum=0.1, affine=True, track_running_stats=True)
              )
            )
            (4): MBInvertedConvLayer(
              (inverted_bottleneck): Sequential(
                (0): Conv2d(64, 192, kernel_size=(1, 1), stride=(1, 1), bias=False)
                (1): BatchNorm2d(192, eps=1e-05, momentum=0.1, affine=True, track_running_stats=True)
                (2): ReLU6(inplace=True)
              )
              (depth_conv): Sequential(
                (0): Conv2d(192, 192, kernel_size=(7, 7), stride=(2, 2), padding=(3, 3), groups=192, bias=False)
                (1): BatchNorm2d(192, eps=1e-05, momentum=0.1, affine=True, track_running_stats=True)
                (2): ReLU6(inplace=True)
              )
              (point_linear): Sequential(
                (0): Conv2d(192, 128, kernel_size=(1, 1), stride=(1, 1), bias=False)
                (1): BatchNorm2d(128, eps=1e-05, momentum=0.1, affine=True, track_running_stats=True)
              )
            )
            (5): MBInvertedConvLayer(
              (inverted_bottleneck): Sequential(
                (0): Conv2d(64, 384, kernel_size=(1, 1), stride=(1, 1), bias=False)
                (1): BatchNorm2d(384, eps=1e-05, momentum=0.1, affine=True, track_running_stats=True)
                (2): ReLU6(inplace=True)
              )
              (depth_conv): Sequential(
                (0): Conv2d(384, 384, kernel_size=(7, 7), stride=(2, 2), padding=(3, 3), groups=384, bias=False)
                (1): BatchNorm2d(384, eps=1e-05, momentum=0.1, affine=True, track_running_stats=True)
                (2): ReLU6(inplace=True)
              )
              (point_linear): Sequential(
                (0): Conv2d(384, 128, kernel_size=(1, 1), stride=(1, 1), bias=False)
                (1): BatchNorm2d(128, eps=1e-05, momentum=0.1, affine=True, track_running_stats=True)
              )
            )
          )
        )
      )
      (8): MobileInvertedResidualBlock(
        (mobile_inverted_conv): MixedEdge(
          (candidate_ops): ModuleList(
            (0): MBInvertedConvLayer(
              (inverted_bottleneck): Sequential(
                (0): Conv2d(128, 384, kernel_size=(1, 1), stride=(1, 1), bias=False)
                (1): BatchNorm2d(384, eps=1e-05, momentum=0.1, affine=True, track_running_stats=True)
                (2): ReLU6(inplace=True)
              )
              (depth_conv): Sequential(
                (0): Conv2d(384, 384, kernel_size=(3, 3), stride=(1, 1), padding=(1, 1), groups=384, bias=False)
                (1): BatchNorm2d(384, eps=1e-05, momentum=0.1, affine=True, track_running_stats=True)
                (2): ReLU6(inplace=True)
              )
              (point_linear): Sequential(
                (0): Conv2d(384, 128, kernel_size=(1, 1), stride=(1, 1), bias=False)
                (1): BatchNorm2d(128, eps=1e-05, momentum=0.1, affine=True, track_running_stats=True)
              )
            )
            (1): MBInvertedConvLayer(
              (inverted_bottleneck): Sequential(
                (0): Conv2d(128, 768, kernel_size=(1, 1), stride=(1, 1), bias=False)
                (1): BatchNorm2d(768, eps=1e-05, momentum=0.1, affine=True, track_running_stats=True)
                (2): ReLU6(inplace=True)
              )
              (depth_conv): Sequential(
                (0): Conv2d(768, 768, kernel_size=(3, 3), stride=(1, 1), padding=(1, 1), groups=768, bias=False)
                (1): BatchNorm2d(768, eps=1e-05, momentum=0.1, affine=True, track_running_stats=True)
                (2): ReLU6(inplace=True)
              )
              (point_linear): Sequential(
                (0): Conv2d(768, 128, kernel_size=(1, 1), stride=(1, 1), bias=False)
                (1): BatchNorm2d(128, eps=1e-05, momentum=0.1, affine=True, track_running_stats=True)
              )
            )
            (2): MBInvertedConvLayer(
              (inverted_bottleneck): Sequential(
                (0): Conv2d(128, 384, kernel_size=(1, 1), stride=(1, 1), bias=False)
                (1): BatchNorm2d(384, eps=1e-05, momentum=0.1, affine=True, track_running_stats=True)
                (2): ReLU6(inplace=True)
              )
              (depth_conv): Sequential(
                (0): Conv2d(384, 384, kernel_size=(5, 5), stride=(1, 1), padding=(2, 2), groups=384, bias=False)
                (1): BatchNorm2d(384, eps=1e-05, momentum=0.1, affine=True, track_running_stats=True)
                (2): ReLU6(inplace=True)
              )
              (point_linear): Sequential(
                (0): Conv2d(384, 128, kernel_size=(1, 1), stride=(1, 1), bias=False)
                (1): BatchNorm2d(128, eps=1e-05, momentum=0.1, affine=True, track_running_stats=True)
              )
            )
            (3): MBInvertedConvLayer(
              (inverted_bottleneck): Sequential(
                (0): Conv2d(128, 768, kernel_size=(1, 1), stride=(1, 1), bias=False)
                (1): BatchNorm2d(768, eps=1e-05, momentum=0.1, affine=True, track_running_stats=True)
                (2): ReLU6(inplace=True)
              )
              (depth_conv): Sequential(
                (0): Conv2d(768, 768, kernel_size=(5, 5), stride=(1, 1), padding=(2, 2), groups=768, bias=False)
                (1): BatchNorm2d(768, eps=1e-05, momentum=0.1, affine=True, track_running_stats=True)
                (2): ReLU6(inplace=True)
              )
              (point_linear): Sequential(
                (0): Conv2d(768, 128, kernel_size=(1, 1), stride=(1, 1), bias=False)
                (1): BatchNorm2d(128, eps=1e-05, momentum=0.1, affine=True, track_running_stats=True)
              )
            )
            (4): MBInvertedConvLayer(
              (inverted_bottleneck): Sequential(
                (0): Conv2d(128, 384, kernel_size=(1, 1), stride=(1, 1), bias=False)
                (1): BatchNorm2d(384, eps=1e-05, momentum=0.1, affine=True, track_running_stats=True)
                (2): ReLU6(inplace=True)
              )
              (depth_conv): Sequential(
                (0): Conv2d(384, 384, kernel_size=(7, 7), stride=(1, 1), padding=(3, 3), groups=384, bias=False)
                (1): BatchNorm2d(384, eps=1e-05, momentum=0.1, affine=True, track_running_stats=True)
                (2): ReLU6(inplace=True)
              )
              (point_linear): Sequential(
                (0): Conv2d(384, 128, kernel_size=(1, 1), stride=(1, 1), bias=False)
                (1): BatchNorm2d(128, eps=1e-05, momentum=0.1, affine=True, track_running_stats=True)
              )
            )
            (5): MBInvertedConvLayer(
              (inverted_bottleneck): Sequential(
                (0): Conv2d(128, 768, kernel_size=(1, 1), stride=(1, 1), bias=False)
                (1): BatchNorm2d(768, eps=1e-05, momentum=0.1, affine=True, track_running_stats=True)
                (2): ReLU6(inplace=True)
              )
              (depth_conv): Sequential(
                (0): Conv2d(768, 768, kernel_size=(7, 7), stride=(1, 1), padding=(3, 3), groups=768, bias=False)
                (1): BatchNorm2d(768, eps=1e-05, momentum=0.1, affine=True, track_running_stats=True)
                (2): ReLU6(inplace=True)
              )
              (point_linear): Sequential(
                (0): Conv2d(768, 128, kernel_size=(1, 1), stride=(1, 1), bias=False)
                (1): BatchNorm2d(128, eps=1e-05, momentum=0.1, affine=True, track_running_stats=True)
              )
            )
            (6): Zero()
          )
        )
      )
      (9): MobileInvertedResidualBlock(
        (mobile_inverted_conv): MixedEdge(
          (candidate_ops): ModuleList(
            (0): MBInvertedConvLayer(
              (inverted_bottleneck): Sequential(
                (0): Conv2d(128, 384, kernel_size=(1, 1), stride=(1, 1), bias=False)
                (1): BatchNorm2d(384, eps=1e-05, momentum=0.1, affine=True, track_running_stats=True)
                (2): ReLU6(inplace=True)
              )
              (depth_conv): Sequential(
                (0): Conv2d(384, 384, kernel_size=(3, 3), stride=(1, 1), padding=(1, 1), groups=384, bias=False)
                (1): BatchNorm2d(384, eps=1e-05, momentum=0.1, affine=True, track_running_stats=True)
                (2): ReLU6(inplace=True)
              )
              (point_linear): Sequential(
                (0): Conv2d(384, 128, kernel_size=(1, 1), stride=(1, 1), bias=False)
                (1): BatchNorm2d(128, eps=1e-05, momentum=0.1, affine=True, track_running_stats=True)
              )
            )
            (1): MBInvertedConvLayer(
              (inverted_bottleneck): Sequential(
                (0): Conv2d(128, 768, kernel_size=(1, 1), stride=(1, 1), bias=False)
                (1): BatchNorm2d(768, eps=1e-05, momentum=0.1, affine=True, track_running_stats=True)
                (2): ReLU6(inplace=True)
              )
              (depth_conv): Sequential(
                (0): Conv2d(768, 768, kernel_size=(3, 3), stride=(1, 1), padding=(1, 1), groups=768, bias=False)
                (1): BatchNorm2d(768, eps=1e-05, momentum=0.1, affine=True, track_running_stats=True)
                (2): ReLU6(inplace=True)
              )
              (point_linear): Sequential(
                (0): Conv2d(768, 128, kernel_size=(1, 1), stride=(1, 1), bias=False)
                (1): BatchNorm2d(128, eps=1e-05, momentum=0.1, affine=True, track_running_stats=True)
              )
            )
            (2): MBInvertedConvLayer(
              (inverted_bottleneck): Sequential(
                (0): Conv2d(128, 384, kernel_size=(1, 1), stride=(1, 1), bias=False)
                (1): BatchNorm2d(384, eps=1e-05, momentum=0.1, affine=True, track_running_stats=True)
                (2): ReLU6(inplace=True)
              )
              (depth_conv): Sequential(
                (0): Conv2d(384, 384, kernel_size=(5, 5), stride=(1, 1), padding=(2, 2), groups=384, bias=False)
                (1): BatchNorm2d(384, eps=1e-05, momentum=0.1, affine=True, track_running_stats=True)
                (2): ReLU6(inplace=True)
              )
              (point_linear): Sequential(
                (0): Conv2d(384, 128, kernel_size=(1, 1), stride=(1, 1), bias=False)
                (1): BatchNorm2d(128, eps=1e-05, momentum=0.1, affine=True, track_running_stats=True)
              )
            )
            (3): MBInvertedConvLayer(
              (inverted_bottleneck): Sequential(
                (0): Conv2d(128, 768, kernel_size=(1, 1), stride=(1, 1), bias=False)
                (1): BatchNorm2d(768, eps=1e-05, momentum=0.1, affine=True, track_running_stats=True)
                (2): ReLU6(inplace=True)
              )
              (depth_conv): Sequential(
                (0): Conv2d(768, 768, kernel_size=(5, 5), stride=(1, 1), padding=(2, 2), groups=768, bias=False)
                (1): BatchNorm2d(768, eps=1e-05, momentum=0.1, affine=True, track_running_stats=True)
                (2): ReLU6(inplace=True)
              )
              (point_linear): Sequential(
                (0): Conv2d(768, 128, kernel_size=(1, 1), stride=(1, 1), bias=False)
                (1): BatchNorm2d(128, eps=1e-05, momentum=0.1, affine=True, track_running_stats=True)
              )
            )
            (4): MBInvertedConvLayer(
              (inverted_bottleneck): Sequential(
                (0): Conv2d(128, 384, kernel_size=(1, 1), stride=(1, 1), bias=False)
                (1): BatchNorm2d(384, eps=1e-05, momentum=0.1, affine=True, track_running_stats=True)
                (2): ReLU6(inplace=True)
              )
              (depth_conv): Sequential(
                (0): Conv2d(384, 384, kernel_size=(7, 7), stride=(1, 1), padding=(3, 3), groups=384, bias=False)
                (1): BatchNorm2d(384, eps=1e-05, momentum=0.1, affine=True, track_running_stats=True)
                (2): ReLU6(inplace=True)
              )
              (point_linear): Sequential(
                (0): Conv2d(384, 128, kernel_size=(1, 1), stride=(1, 1), bias=False)
                (1): BatchNorm2d(128, eps=1e-05, momentum=0.1, affine=True, track_running_stats=True)
              )
            )
            (5): MBInvertedConvLayer(
              (inverted_bottleneck): Sequential(
                (0): Conv2d(128, 768, kernel_size=(1, 1), stride=(1, 1), bias=False)
                (1): BatchNorm2d(768, eps=1e-05, momentum=0.1, affine=True, track_running_stats=True)
                (2): ReLU6(inplace=True)
              )
              (depth_conv): Sequential(
                (0): Conv2d(768, 768, kernel_size=(7, 7), stride=(1, 1), padding=(3, 3), groups=768, bias=False)
                (1): BatchNorm2d(768, eps=1e-05, momentum=0.1, affine=True, track_running_stats=True)
                (2): ReLU6(inplace=True)
              )
              (point_linear): Sequential(
                (0): Conv2d(768, 128, kernel_size=(1, 1), stride=(1, 1), bias=False)
                (1): BatchNorm2d(128, eps=1e-05, momentum=0.1, affine=True, track_running_stats=True)
              )
            )
            (6): Zero()
          )
        )
      )
    )
    (feature_mix_layer): Sequential(
      (0): Conv2d(128, 1280, kernel_size=(1, 1), stride=(1, 1))
      (1): BatchNorm2d(1280, eps=1e-05, momentum=0.1, affine=True, track_running_stats=True)
      (2): ReLU6()
    )
    (gap): AdaptiveAvgPool2d(output_size=1)
    (classifier): Sequential(
      (0): Dropout(p=0.5, inplace=True)
      (1): Linear(in_features=1280, out_features=10, bias=True)
    )
  )
)